…
```","```py from pfhedge.nn import <SOFTWARE>Hedger</SOFTWARE> from pfhedge.nn import <SOFTWARE>MultiLayerPerceptron</SOFTWARE>  model = <SOFTWARE>MultiLayerPerceptron</SOFTWARE>() hedger = <SOFTWARE>Hedger</SOFTWARE>(model, inputs=[""log_moneyness"", ""expiry_time"", ""volatility"", ""prev_hedge""]) ```  The `hedger` is also a [`<SOFTWARE>Module</SOFTWARE>`](https://pytorch.org/docs/stable/generated/torch.nn.Module.html).
```",../results/deepseek-chat/prompt-0/zzz_pfnet-research_pfhedge_main_README.md.tsv\dd63b4ef.txt,0.9935275080906149
56,"```py hedger # Hedger( #   inputs=['log_moneyness', 'expiry_time', 'volatility', 'prev_hedge'] #   (model): MultiLayerPerceptron( #     (0): LazyLinear(in_features=0, out_features=32, bias=True) #     (1): ReLU() #     (2): Linear(in_features=32, out_features=32, bias=True) #     (3): ReLU() #     (4): Linear(in_features=32, out_features=32, bias=True) #     (5): ReLU() #     (6): Linear(in_features=32, out_features=32, bias=True) #     (7): ReLU() #     (8): Linear(in_features=32, out_features=1, bias=True) #     (9): Identity() #   ) #   (criterion): EntropicRiskMeasure() # ) ```  ### Fit and Price  Now we train our `hedger` so that it minimizes the risk measure through hedging.","```py hedger # Hedger( #   inputs=['log_moneyness', 'expiry_time', 'volatility', 'prev_hedge'] #   (model): MultiLayerPerceptron( #     (0): LazyLinear(in_features=0, out_features=32, bias=True) #     (1): ReLU() #     (2): Linear(in_features=32, out_features=32, bias=True) #     (3): ReLU() #     (4): Linear(in_features=32, out_features=32, bias=True) #     (5): ReLU() #     (6): Linear(in_features=32, out_features=32, bias=True) #     (7): ReLU() #     (8): Linear(in_features=32, out_features=1, bias=True) #     (9): Identity() #   ) #   (criterion): EntropicRiskMeasure() # ) ```  ### Fit and Price  Now we train our `hedger` so that it minimizes the risk measure through hedging.","```py hedger # Hedger( #   inputs=['log_moneyness', 'expiry_time', 'volatility', 'prev_hedge'] #   (model): MultiLayerPerceptron( #     (0): LazyLinear(in_features=0, out_features=32, bias=True) #     (1): ReLU() #     (2): Linear(in_features=32, out_features=32, bias=True) #     (3): ReLU() #     (4): Linear(in_features=32, out_features=32, bias=True) #     (5): ReLU() #     (6): Linear(in_features=32, out_features=32, bias=True) #     (7): ReLU() #     (8): Linear(in_features=32, out_features=1, bias=True) #     (9): Identity() #   ) #   (criterion): EntropicRiskMeasure() # ) ```  ### Fit and Price  Now we train our `hedger` so that it minimizes the risk measure through hedging.
```","```py <SOFTWARE>hedger</SOFTWARE> # <SOFTWARE>Hedger</SOFTWARE>( #   inputs=['log_moneyness', 'expiry_time', 'volatility', 'prev_hedge'] #   (model): <SOFTWARE>MultiLayerPerce
…
